Model: "sequential"
_________________________________________________________________
Layer (type)                 Output Shape              Param #   
=================================================================
dense (Dense)                (None, 50)                300       
_________________________________________________________________
dense_1 (Dense)              (None, 50)                2550      
_________________________________________________________________
dense_2 (Dense)              (None, 50)                2550      
_________________________________________________________________
dense_3 (Dense)              (None, 50)                2550      
_________________________________________________________________
dense_4 (Dense)              (None, 50)                2550      
_________________________________________________________________
dense_5 (Dense)              (None, 50)                2550      
_________________________________________________________________
dense_6 (Dense)              (None, 5)                 255       
=================================================================
Total params: 13,305
Trainable params: 13,305
Non-trainable params: 0
_________________________________________________________________
Layer: 1
Rule: 0
NEURON_1_2 == False and NEURON_1_10 == False and NEURON_1_18 == False and NEURON_1_29 == False and NEURON_1_34 == False and NEURON_1_38 == False and NEURON_1_41 == False and NEURON_1_49 == False => NEURON_2_0
…
