Model: "sequential"
_________________________________________________________________
Layer (type)                 Output Shape              Param #
=================================================================
dense (Dense)                (None, 50)                300
_________________________________________________________________
dense_1 (Dense)              (None, 50)                2550
_________________________________________________________________
dense_2 (Dense)              (None, 50)                2550
_________________________________________________________________
dense_3 (Dense)              (None, 50)                2550
_________________________________________________________________
dense_4 (Dense)              (None, 50)                2550
_________________________________________________________________
dense_5 (Dense)              (None, 50)                2550
_________________________________________________________________
dense_6 (Dense)              (None, 5)                 255
=================================================================
Total params: 13,305
Trainable params: 13,305
Non-trainable params: 0
_________________________________________________________________
Layer: 1
Rule: 0
No properties
Layer: 1
Rule: 1
No properties
Layer: 1
Rule: 2
No properties
Layer: 1
Rule: 3
NEURON_1_4 == False and NEURON_1_9 == False and NEURON_1_16 == True and NEURON_1_32 == True and NEURON_1_36 == True => NEURON_2_3
…
